model.pth (torch_old, 110035 bytes, 56 tensors)

conv1.weight f4 [64, 1, 10, 4]
000000 21 b4 cd 3d cd 61 17 bd 39 37 17 be bc 31 78 3e
       0.100441225 -0.036958504 -0.1476716 0.24237722
000010 56 e1 5e bd 75 da 91 bd 5b a7 cd bd 8c 2f 24 3e
       -0.054414116 -0.071217455 -0.10041686 0.16033763
000020 df 65 b8 3d 35 f0 00 be 3b f6 41 3d 4f fb 3b 3e
       0.09003805 -0.12591632 0.047353964 0.18357585
000030 89 4f 98 3d 6c a5 b9 3a 93 c9 97 bd ba 5d f7 bc
       0.07437045 0.001416368 -0.07411494 -0.03019606
000040 ee ff 91 bd b2 4a 89 bd 13 3b 7c bd 71 38 da bd
       -0.07128893 -0.067037 -0.061579775 -0.106552966
000050 2d 2f 73 3d 6e f9 4b 3e fd e2 52 bb 86 2d 5a 3c
       0.059371162 0.19919369 -0.0032178753 0.013316518
000060 ec f9 8d bd 01 87 6d 3e cd d6 75 3e 60 77 15 3d
       -0.069324344 0.23196031 0.24007721 0.036490798
000070 37 6d 0b 3d c0 87 6c bd c4 55 9b 3e 7b 32 22 be
       0.034039702 -0.05774665 0.3033887 -0.1583957
000080 8e 9b 0b be 8e 28 4c 3d 72 65 c9 3d 7b e8 ec 3c
       -0.13633558 0.049843363 0.09833802 0.02891945
000090 8e 5a 8b bb 19 51 58 3d 7a f9 61 3e ca 6d 59 be
       -0.0042527383 0.052811716 0.22067824 -0.21233287
0000a0 0e 93 c4 bc 86 63 a1 bd ab bb ac 3c 70 76 06 3d
       -0.023995902 -0.07880311 0.02108558 0.032827795
0000b0 47 8e d9 bd 02 7b 42 be 0e c4 d1 3d fd a9 59 3d
       -0.106228404 -0.18992236 0.102424726 0.05314063
0000c0 2a fa e4 3d ab 45 a8 be 94 90 44 3e 17 4a 02 3e
       0.111805275 -0.32865652 0.19195777 0.12723576
0000d0 11 e8 42 3c 68 e7 9d be 98 4c ce 3d e6 e6 b0 bd
       0.011896149 -0.3084061 0.10073203 -0.086377904
0000e0 06 1b 8d 3d 43 b0 1f bd d8 1e 29 be e2 c0 9c 3d
       0.0688992 -0.038986456 -0.16515672 0.07653977
0000f0 0d b3 7e 3d 02 dc 7a bd 78 c3 1d be ec a5 17 be
       0.062182475 -0.061244972 -0.15406597 -0.14809388
000100 7f 2e a5 bd 7f a7 b4 3c 2d d0 00 be d6 c7 25 be
       -0.08065509 0.022052525 -0.12579413 -0.16189513
000110 e7 32 b8 3d 7c 83 3d 3d ca 39 33 be b0 86 62 3d
       0.08994084 0.04626797 -0.17502514 0.05530423
000120 ef 94 3b 3e ad 87 9f 3d 16 7a 29 be ed 5a 00 be
       0.18318532 0.0778955 -0.16550478 -0.12534685
000130 ea 2e 1c 3e bd 5b c1 3d 6c 6e 72 bd f9 e8 14 3e
       0.15252271 0.09441326 -0.059187338 0.14541997
000140 3c 86 84 3c 98 b7 2e 3c 73 27 01 be 53 17 05 3e
       0.01617729 0.010663889 -0.12612705 0.12997179
000150 d6 b7 fa 3d 23 9c 49 be 95 50 07 3e 74 a6 38 3e
       0.12242095 -0.19688468 0.13214333 0.18032247
000160 7b 45 55 bd 69 f4 28 3d 39 8f 97 bd 65 2a a1 bc
       -0.052068215 0.041248713 -0.074003644 -0.019673536
000170 cd 88 b4 3d da 9b 64 3e 5e d9 5e bd 7d db 0d 3e
       0.08815155 0.22325078 -0.054406516 0.1385326
000180 3a f8 98 3d 57 85 97 3e 46 36 ea bc dc 33 07 be
       0.074692205 0.29593918 -0.028590333 -0.13203377
000190 ac 1b 09 3e 2f a9 8d 3e d2 ad fb 3d 98 08 e4 bd
       0.13389462 0.2766814 0.12289013 -0.11134452
0001a0 74 33 28 3e 2d c3 6b 3d 94 f2 57 3d 35 fc 88 3d
       0.16425878 0.05755918 0.052721575 0.0668873
0001b0 82 a6 d9 3d 94 a8 58 3e 32 f0 56 bd 8f 3e 99 3d
       0.10627462 0.21158057 -0.05247516 0.07482635
0001c0 10 08 b5 bd 83 d3 af bb 92 d5 aa bc c2 14 2d bd
       -0.088394284 -0.0053657903 -0.020853791 -0.042256124
0001d0 e0 43 a4 3c da 06 b1 3d c4 22 ca bd 21 fc 0e 3e
       0.020051897 0.08643885 -0.09869912 0.13963367
0001e0 b4 79 08 3d ad 4c 42 3e 69 b6 ec 3d 92 94 84 bc
       0.03331919 0.18974562 0.115582295 -0.016184125
0001f0 0c d0 1d be b1 a8 3e 3e c1 0f b6 3c 01 83 36 be
       -0.15411395 0.18619038 0.022224309 -0.17823412
000200 1f c7 8f bd 3c f3 9c bd 28 df e8 3d bc 76 0b bd
       -0.07020401 -0.07663581 0.11370689 -0.03404878
000210 6b 56 f6 3d f3 26 17 bd b3 66 c0 bd 80 61 4a 3d
       0.12028202 -0.03690238 -0.09394588 0.04940939
000220 df 0d a5 bd 13 c8 93 bd 29 a5 f8 3b d8 dc 24 be
       -0.08059286 -0.072158955 0.007588048 -0.1609987
000230 5d 9c cf bd 14 6f 9b be 99 db 84 bd 9f 74 55 bd
       -0.10137246 -0.30358183 -0.064871974 -0.05211317
000240 4a 0b 24 3d 00 35 51 be b2 33 e3 bd 73 2b 65 3d
       0.04004983 -0.20430374 -0.110938445 0.05594964
000250 8a 7e b3 3d c2 e0 96 be 9a 3d 13 3c 5b bf 4a bd
       0.0876437 -0.29468352 0.008986855 -0.049498897
000260 c6 45 b4 bd f4 38 23 be 27 67 e8 bd 20 1d ff 3d
       -0.08802371 -0.15939695 -0.113478 0.12456727
000270 3a b0 bb bd 9c 4a 0f be e3 e1 96 3c 38 41 19 3e
       -0.09164472 -0.13993305 0.018418258 0.14966285
000280 9d 16 ae 3d 0a 29 76 3d 92 90 b4 3d 90 dc 80 bd
       0.08500407 0.06009773 0.08816637 -0.06292069
000290 41 74 d9 3d 5b a9 f5 3d b6 1a 1f 3c bc 95 39 be
       0.10617877 0.119951926 0.009710958 -0.18123525
0002a0 42 3f 9a bd 59 bb 31 3e 2e b0 14 3e e5 54 32 bd
       -0.07531597 0.17356624 0.14520332 -0.043537993
0002b0 14 05 47 bd c1 dd 9c bc 9a 25 3a 3e bc 0b 05 be
       -0.048588827 -0.01914871 0.18178406 -0.12992758
0002c0 62 0a 1f 3c eb bb 9e 3d 6d 30 23 3e b1 e0 1f bd
       0.009707065 0.07750686 0.15936442 -0.03903264
0002d0 89 4f 1f 3e c2 e5 ff bd 38 a5 1b bc 72 1b ea bd
       0.15557684 -0.12494995 -0.00949984 -0.11431016
0002e0 fb f5 58 bd b2 c3 a2 3d 3a b6 3e be 95 b5 5c be
       -0.05296896 0.07947482 -0.18624201 -0.21553643
0002f0 7d 61 19 bd 56 09 24 3d 3e 63 9d 3d 4f 77 80 be
       -0.037446488 0.040047966 0.076849446 -0.25091025
000300 5a b6 a2 3c 4b 08 23 be f2 ad e5 3d 58 f2 1c 3c
       0.019862343 -0.15921132 0.11214818 0.009579264
000310 95 95 07 3c 0a 88 19 be 79 ef c1 bd 0d c1 42 be
       0.008275409 -0.14993301 -0.09469504 -0.19018956
000320 a0 21 86 3d 1a d5 57 bd aa 6c b4 3d b2 4f 40 3d
       0.06549382 -0.052693464 0.088097885 0.046951003
000330 45 83 07 3e 1d 44 23 bc d2 16 8a 3c 04 3d 21 be
       0.13233669 -0.00996497 0.016856585 -0.15745932
000340 e8 71 42 3e ec e4 0b 3e 85 36 60 bd 94 c6 84 bd
       0.18988764 0.13661546 -0.054739494 -0.06483188
000350 2f 3c a1 3c 2e d4 9f 3e 0c fb d8 ba 23 b6 1b be
       0.019682018 0.31216568 -0.001655431 -0.15206198
000360 35 10 33 3e 67 84 54 3e 83 20 d9 3d b5 6f 3e 3d
       0.17486651 0.20753632 0.10601904 0.04649325
000370 54 da 99 bb f4 52 11 be d7 21 f4 bb 4e 32 86 bd
       -0.004695216 -0.141918 -0.007450323 -0.065525636
000380 7d 37 e8 3d 26 ba 67 bd 19 3f 6e 3d fe ac f9 3d
       0.113387085 -0.05657401 0.058165643 0.12191199
000390 bf 72 2e be 82 4e 82 bd c1 72 8d bd 55 fd 01 3d
       -0.1703596 -0.063626304 -0.06906653 0.031735737
0003a0 be a2 42 be 7b b6 b3 bb c3 42 86 3d 0f c8 83 bd
       -0.19007394 -0.0054844 0.065557025 -0.064346425
0003b0 9b ce db bd 1f 5f ce 3d 29 b4 68 3d e8 51 a4 bb
       -0.10732766 0.10076737 0.05681244 -0.005014647
0003c0 84 cf e0 bd 01 62 78 bd f5 3c e9 3d 5e 8d e4 3d
       -0.109770805 -0.06064034 0.1138858 0.11159776
0003d0 e2 81 e9 bd 9c 30 7c bc 0b 56 03 be 9f 89 d7 3d
       -0.11401726 -0.015392449 -0.12825792 0.10524296
0003e0 c6 72 3d 3d 86 62 fa 3c f6 e3 24 be a7 f9 3b 3e
       0.046252035 0.030564558 -0.16102585 0.18356954
0003f0 60 9e d1 3d d1 4c 0b 3e 1e 19 00 3e cc 7e 28 3e
       0.10235286 0.13603522 0.12509581 0.16454619

conv1.bias f4 [64]
000000 fa 4b 56 3d e1 fd 41 bd ed 88 34 3d aa 02 82 bd
       0.05231855 -0.04736126 0.044075895 -0.063481644
000010 47 39 6a bd 01 1a 5e bc 0b 0a 0d 3e d4 90 86 3d
       -0.05718353 -0.0135560045 0.13773362 0.065705925
000020 fd ce 5c 3c 5c e0 a1 3d 5d 63 d5 bd 6a 97 e2 3c
       0.013477084 0.07904121 -0.10419343 0.02766009
000030 e4 94 a4 3b 5a 05 8d 3d 93 31 dc bd 7d a5 4e bd
       0.005022632 0.06885786 -0.10751643 -0.05045079
000040 12 1c cd 3d f3 97 a3 3d b5 09 ba bc cd a3 11 3e
       0.100151196 0.079879664 -0.022709707 0.14222641
000050 42 04 05 3e 44 e7 a6 bd d2 4a b5 3c 43 72 96 bd
       0.12989905 -0.08149579 0.022130404 -0.073460124
000060 68 ac 5a bc 3b d0 c4 bd d3 5d c1 3d c1 79 0d 3d
       -0.013346769 -0.09610029 0.09441724 0.03453994
000070 65 33 1b 3d 6e 32 8a bd d8 2f fb bd 98 01 d6 bd
       0.03789081 -0.067479 -0.12264985 -0.10449523
000080 a5 ea 2c 3c 67 c4 57 3d da 8e 14 bd 82 9b 9c 3b
       0.0105539905 0.05267754 -0.036269046 0.00477928
000090 0d 74 9e bd 97 ef a6 3d 42 5c c4 bd 78 15 27 bb
       -0.07736979 0.08151167 -0.09587909 -0.0025494974
0000a0 e8 ea b3 3c 53 d7 19 bd 69 6c 5e bd cd 77 25 bb
       0.021962598 -0.037558865 -0.054302607 -0.0025248409
0000b0 04 e9 57 bd 6b fb e1 bd 45 db 6b 3d 7a b8 07 be
       -0.052712455 -0.11034282 0.05758216 -0.13253966
0000c0 38 aa d6 3d 08 e1 e9 3d ea 9e e4 3d 6b 12 03 3e
       0.104816854 0.114198744 0.11163123 0.12799995
0000d0 c4 a8 6e bd e8 a5 05 3d 87 4c 92 bd a1 6f 8e bc
       -0.058266416 0.032628924 -0.07143503 -0.017387213
0000e0 5e be d6 bd ae 67 9a 3d 5f 6b 53 bd da 46 27 bd
       -0.104855284 0.075393066 -0.05161607 -0.040839054
0000f0 e0 60 0e be 74 5e 84 3d a0 ed e4 bd 51 91 13 bd
       -0.13904142 0.06463328 -0.11178136 -0.036027256

bn1.weight f4 [64]
000000 df 9e 82 3f 74 31 89 3f 85 e6 84 3f aa b2 75 3f
       1.0204734 1.0718217 1.0382849 0.95975745
000010 89 0a 7f 3f 8c 0d 92 3f 46 46 93 3f 6c ca 76 3f
       0.9962545 1.1410384 1.1505821 0.9640262
000020 9c f8 61 3f 96 af 97 3f d8 57 87 3f 85 10 51 3f
       0.8826997 1.185046 1.0573683 0.8166583
000030 1f 2c 95 3f f8 3f 86 3f b1 d0 6a 3f 5b 11 86 3f
       1.165409 1.0488272 0.9172469 1.0474046
000040 4f ab 8e 3f b0 0e 96 3f ad 46 4a 3f 59 a9 6e 3f
       1.1146029 1.1723232 0.7901409 0.93227154
000050 1d d6 8a 3f c9 54 74 3f 14 1d a3 3f e7 de 80 3f
       1.0846592 0.9544187 1.2743249 1.0068024
000060 7a 62 83 3f eb e3 90 3f 51 e7 8e 3f 91 7c 94 3f
       1.0264428 1.1319555 1.1164342 1.1600515
000070 f9 0a 70 3f 0e 49 75 3f 65 4e 80 3f 03 8b 48 3f
       0.9376674 0.958146 1.0023924 0.78337115
000080 30 7c 82 3f 86 e6 9b 3f 2a 27 53 3f a8 76 7b 3f
       1.0194149 1.2179725 0.82481635 0.9822793
000090 48 88 75 3f fe dd 77 3f e9 fe 86 3f ae 4d a6 3f
       0.95911074 0.9682311 1.0546542 1.2992456
0000a0 ed ff 8e 3f 11 ca 7f 3f 5c a3 8e 3f 45 12 5a 3f
       1.1171852 0.99917704 1.1143603 0.8518413
0000b0 22 35 59 3f 72 5b 60 3f ac ad 98 3f c2 1b 82 3f
       0.848467 0.87639534 1.1928 1.0164721
0000c0 2b 20 65 3f 58 6b 40 3f b1 09 61 3f d2 24 76 3f
       0.8950221 0.75163794 0.8790541 0.96149933
0000d0 d5 50 a9 3f bc 57 7b 3f b7 71 8c 3f db c7 7e 3f
       1.3227793 0.9818075 1.0972203 0.99523705
0000e0 ab 39 bb 3f 4a 90 91 3f 24 30 43 3f 50 72 6f 3f
       1.4626974 1.1372159 0.7624533 0.935338
0000f0 ed 77 92 3f 9a 60 5d 3f 6e 10 85 3f a7 59 b3 3f
       1.1442848 0.8647553 1.0395639 1.4011735

bn1.bias f4 [64]
000000 c2 5d 54 bd c7 84 2d 3d 13 26 2e 3d 73 de bc bd
       -0.051847227 0.042362954 0.04251678 -0.09222116
000010 84 b4 34 3d d0 18 95 3b 0e d6 a8 bc 84 63 d1 bd
       0.044117466 0.004550077 -0.020609882 -0.10224059
000020 7c a1 0f be 9d b9 00 bb 1e bc 9d bd 9b e1 50 be
       -0.14026445 -0.0019641884 -0.07701896 -0.20398562
000030 2d c1 09 3d f6 21 06 3d 1b c3 fa bd d8 3b ef bc
       0.033631492 0.03274723 -0.12244245 -0.02920334
000040 c0 9d 29 3d 75 9a 0f bc 4a 88 46 be c9 f8 f4 bd
       0.041410208 -0.008764853 -0.19387928 -0.119615145
000050 ea c3 58 bc 34 42 f8 bd ab 4d 2a bc 8b 6e 9e bd
       -0.013230303 -0.12122002 -0.010394494 -0.07735928
000060 f7 38 12 3d 4f 7e 0b bd cc 42 55 bb 26 d0 9f bc
       0.035698857 -0.034056004 -0.0032541035 -0.019508433
000070 69 31 f2 bd 65 4d e5 bd 1f 7a 5a bc c1 af 68 be
       -0.118258305 -0.111964025 -0.01333478 -0.22723295
000080 fc f7 68 bd 96 2a 2c bd d4 08 30 be fd 49 9a bd
       -0.05687712 -0.0420328 -0.17190868 -0.075336434
000090 8a fe e9 bd a6 d8 c8 bd 0b 2c a7 bd fd 93 0c bc
       -0.114255026 -0.098069474 -0.081626974 -0.008580205
0000a0 d9 a2 ac bc a4 08 5e bd 83 06 11 bb 7a b1 10 be
       -0.021073746 -0.05420746 -0.0022129125 -0.14130202
0000b0 a3 16 28 be 3e 41 2e be 57 81 85 bc 0a d9 47 bd
       -0.16414885 -0.17017075 -0.016297026 -0.04879097
0000c0 22 80 e1 bd 0a c3 6e be 21 94 19 be 29 7d 98 bd
       -0.110107675 -0.23316589 -0.14997913 -0.074457474
0000d0 f5 c6 24 bb 70 d3 3a 3d 45 fb a1 bd 05 2f a3 3d
       -0.0025143002 0.0456118 -0.07909254 0.07967953
0000e0 1b 0e 8c bc 9d 18 54 3c 4d 5d 79 be 7e 88 0e be
       -0.01709657 0.012945321 -0.24351998 -0.13919255
0000f0 a6 4e 27 bc 52 99 25 be e0 4d ca bc e1 61 89 bb
       -0.010211622 -0.16171768 -0.024695337 -0.0041925763

bn1.running_mean f4 [64]
000000 de 0b d0 42 22 75 d0 c2 a8 ce 4d 43 23 3e 28 c3
       104.02318 -104.228775 205.80725 -168.24272
000010 0b 22 03 c2 83 bb 9c 42 4e 84 0e 43 02 78 48 43
       -32.783245 78.366234 142.51682 200.46878
000020 64 d1 a9 42 61 f9 57 42 21 80 6d 42 2d 85 75 42
       84.908966 53.993534 59.375126 61.380054
000030 a8 9c 15 c3 ad fe b3 41 ec b7 ea c1 ae d4 88 c2
       -149.61194 22.499353 -29.339806 -68.41539
000040 e4 dc a7 42 ed ea 99 42 bf db 90 42 13 05 49 c3
       83.93143 76.95884 72.42919 -201.01982
000050 81 62 0e c3 48 65 70 42 30 02 fa c2 20 66 cf 42
       -142.38478 60.098907 -125.00427 103.69946
000060 9a 74 1f c1 91 37 28 43 94 34 22 c3 ba 75 78 42
       -9.965967 168.21706 -162.20538 62.114967
000070 60 93 29 43 a3 46 de c2 0b 17 98 c3 0d c4 74 43
       169.57568 -111.13796 -304.18002 244.76582
000080 90 91 76 c3 2d 8e df 40 8a 58 bc c2 85 04 96 c1
       -246.5686 6.9861054 -94.17293 -18.752207
000090 12 e9 47 41 44 18 08 bf 1c e1 fc c1 4b 09 cd c2
       12.494402 -0.53162026 -31.609917 -102.51815
0000a0 64 63 84 c3 80 99 57 42 22 0f 7b 42 d0 f8 bd 43
       -264.7765 53.899902 62.76478 379.94385
0000b0 b0 64 3c c1 c1 37 18 41 1a 49 34 c3 e5 6a f7 41
       -11.774582 9.513612 -180.28555 30.927195
0000c0 74 fe 81 c2 5b ca 53 43 b6 97 4f c2 f7 b2 4d 42
       -64.99698 211.79045 -51.898155 51.42477
0000d0 42 64 db 42 7d 40 bc c2 1a 1f 9b 41 61 07 9e c2
       109.695816 -94.12595 19.390186 -79.01441
0000e0 1e 4a 38 43 d9 72 93 42 7f 8f 55 43 56 76 bc 42
       184.28952 73.72431 213.56053 94.231125
0000f0 b9 1c 82 43 d6 82 97 c0 4c 5c 75 c2 1c dd 0e 43
       260.2244 -4.734721 -61.340134 142.86371

bn1.running_var f4 [64]
000000 41 4e 06 44 22 aa 3e 44 84 36 ec 44 88 60 84 44
       537.2227 762.6583 1889.7036 1059.0166
000010 7d fd 99 45 e4 39 97 44 47 a0 a5 45 07 b5 9d 44
       4927.686 1209.8091 5300.0347 1261.6571
000020 7e 25 9f 44 a6 0b 21 45 05 25 7a 44 92 85 26 44
       1273.1716 2576.728 1000.5784 666.08704
000030 c0 a3 a3 45 df 33 0b 45 d1 22 a0 44 6f 8c 6d 45
       5236.4688 2227.242 1281.088 3800.777
000040 a0 54 45 45 60 4b 9c 45 3c 2f 0a 44 c5 66 aa 44
       3157.289 5001.422 552.73804 1363.2115
000050 d2 4f 53 45 fe 1c 36 44 c4 90 c5 44 da 3e c1 44
       3380.9888 728.453 1580.5239 1545.9641
000060 c6 70 01 45 ea 27 ab 44 62 22 26 45 72 46 cb 43
       2071.0483 1369.2473 2658.149 406.55035
000070 b1 f2 b0 45 52 88 0b 45 50 3a 84 45 60 8e fb 44
       5662.3364 2232.52 4231.289 2012.4492
000080 ad 13 f2 44 f4 15 51 44 ad 8d 65 45 f1 a3 1f 45
       1936.6149 836.343 3672.8547 2554.2463
000090 7a 00 eb 43 a0 01 f3 44 55 79 c3 44 31 b8 36 45
       470.00372 1944.0508 1563.7916 2923.512
0000a0 05 f6 1d 45 a2 73 8b 45 8a 89 19 44 92 87 5b 45
       2527.3762 4462.454 614.14905 3512.4731
0000b0 62 15 52 44 48 d9 d3 43 b1 1c 99 44 5d 01 c6 44
       840.3341 423.6975 1224.8966 1584.0426
0000c0 34 eb 19 45 67 82 35 45 59 78 c2 43 8e 85 88 44
       2462.7002 2904.1501 388.94022 1092.1736
0000d0 ff af 25 44 a0 d3 bd 44 18 7b da 44 ae 57 93 45
       662.74994 1518.6133 1747.8467 4714.96
0000e0 c1 36 60 45 7d 7c 00 44 e5 9d ac 45 a2 e6 ba 44
       3587.422 513.9451 5523.737 1495.2073
0000f0 f5 d2 90 44 d9 45 8e 44 35 bc 2e 45 fa f1 e4 44
       1158.5924 1138.1827 2795.763 1831.5618

conv2.weight f4 [64, 1, 3, 3]
000000 83 40 44 3e b8 d6 86 be 60 fa 19 3e 7c fb f2 bd
       0.19165234 -0.26335692 0.15036917 -0.11864373
000010 45 54 fe bd a8 7a 4c 3d f2 21 b5 3e 22 f4 9c be
       -0.12418417 0.04992166 0.3537746 -0.3065501
000020 ca 4f 62 3e c5 f4 0d bc 08 c6 af 3d ee c9 67 bd
       0.2210075 -0.008664315 0.08582693 -0.05658906
000030 b9 32 25 3e d2 1d 28 be a9 5a 85 bc 1b 01 7f 3e
       0.1613263 -0.16417626 -0.016278582 0.24902765
000040 3e 2d b3 be 2c ff 38 3e 17 36 76 3e 80 b1 1e be
       -0.34995455 0.1806609 0.24044071 -0.15497398
000050 b3 30 b0 bc 67 eb 3a 3e 4c 46 ab 3c d0 32 30 be
       -0.021507597 0.18253861 0.020907544 -0.17206883
000060 c9 3f 85 bd f0 16 85 be 21 1c a4 be d7 f7 98 bb
       -0.06506307 -0.25994062 -0.3205271 -0.0046682167
000070 1d dd 45 be 8b 0e 18 3e 4f e8 d0 3c 08 11 6a 3e
       -0.1932263 0.14849298 0.025501398 0.2285806
000080 cb 3f 56 3d cc e2 f8 3e 16 cb 85 be 19 fa 51 be
       0.05230693 0.48610532 -0.26131505 -0.20505561
000090 44 15 8a 3e 27 df 39 3d 0a 28 97 be ce 99 60 3e
       0.2696935 0.04537883 -0.29522735 0.21933672
0000a0 94 be a4 3d cd 7c ac bd f5 8b 2f 3b 4b 5d f4 3d
       0.080441624 -0.08422241 0.0026786302 0.11931857
0000b0 f6 b1 81 3d 26 f6 83 be f4 5a 0a be ee df 90 3d
       0.063327715 -0.25773734 -0.13511258 0.07073961
0000c0 21 6b 4f 3e 61 14 8a be 3c 0c c3 bd 85 3f 64 3e
       0.2025571 -0.26968673 -0.09523818 0.22289856
0000d0 e7 36 17 bb 3f 0d 2d be e5 de b4 bd 5a 18 95 3e
       -0.0023073496 -0.16899584 -0.08831576 0.2912014
0000e0 b6 7c 64 be 09 d0 7e 3d 57 ce 34 be b7 62 84 be
       -0.22313198 0.062210117 -0.17656837 -0.25856563
0000f0 3a 3c d0 be 6d 5d 3a 3d d1 d8 50 be 82 c0 9d bd
       -0.4067095 0.045499254 -0.20395209 -0.077027336
000100 fa be 3c be 4d 7e 59 3e 62 c4 02 3e c3 e9 b1 bd
       -0.18432227 0.21239586 0.12770227 -0.08687165
000110 57 6c c7 3e 67 35 62 be 9c c5 88 3d 51 ba 38 3e
       0.38949844 -0.22090684 0.06678316 0.18039824
000120 34 67 01 3d d0 e0 2f 3e 96 f7 a5 3e 03 ca 96 be
       0.031592563 0.17175603 0.32415456 -0.29450998
000130 c0 5d 6c be 7d 05 b8 bd a3 8f a0 3e dd 07 02 3e
       -0.23082638 -0.08985422 0.31359586 0.12698312
000140 e9 db 26 3e b6 ec 9b be 87 bf b3 3d 55 c1 60 3e
       0.16294827 -0.30454034 0.08776765 0.2194875
000150 7e c8 95 3e d0 d1 56 3e f3 5a 51 3e 2e b0 76 3e
       0.29254526 0.20978475 0.2044485 0.24090645
000160 91 73 a0 3c 89 17 df 3d f4 f4 a1 be 7c 55 60 3e
       0.019586356 0.10893161 -0.31632197 0.2190761
000170 cf aa 4f 3e 9a 78 8e be eb 18 84 3e f1 8d ba 3e
       0.20280002 -0.27826387 0.2580026 0.36436418
000180 a0 55 e7 3c ed 40 b6 3e b1 35 c7 3e 3c c2 b0 3d
       0.028239071 0.3559641 0.3890815 0.08630797
000190 e9 6e e3 3c d9 ef 5f be 2e cb a3 bd 2d 84 32 3f
       0.027762847 -0.21868838 -0.07997738 0.69732934
0001a0 f7 ca 2c 3d 1c a4 36 3d 67 23 13 3c bf 14 1c 3e
       0.04218575 0.0445901 0.008980609 0.15242289
0001b0 9d 5b 99 be e9 9a 1c 3e aa 54 07 3e a9 2e e8 3d
       -0.29952708 0.15293469 0.1321589 0.11337025
0001c0 a8 b8 56 3c 1a bc 96 3e 4f 7a c8 be f3 4c 5a bc
       0.013105549 0.29440385 -0.39155814 -0.01332401
0001d0 5b 7c 92 be d8 2d e2 bd 98 22 17 3e d8 d7 36 3e
       -0.286105 -0.110439 0.1475929 0.17855775
0001e0 53 58 c2 3e b9 2a 20 3d 86 36 26 be 05 de 87 bd
       0.3795801 0.039103243 -0.16231737 -0.06634144
0001f0 7d b8 d3 bd 63 eb ee bd 5c a0 63 3e 52 43 23 3e
       -0.10337923 -0.1166599 0.22229141 0.1594365
000200 5e ad 42 be 26 f1 7e be 51 d4 69 be 7f 33 af 3e
       -0.19011447 -0.24896678 -0.22834899 0.34218976
000210 e5 77 52 bd 0f d6 10 bd e0 be 09 3e b7 50 84 3e
       -0.05138387 -0.035360392 0.1345172 0.2584283
000220 b7 29 73 3c f7 70 98 3e 1f de 94 3d 03 b7 bf 3e
       0.014841489 0.29773685 0.07268929 0.37444314
000230 67 28 03 be 99 40 81 3e 08 95 44 be bf 31 b1 be
       -0.12808381 0.25244597 -0.19197476 -0.34608266
000240 5f ed 6f 3d 39 ac aa be b2 a0 ee 3d ee 06 63 3e
       0.058575984 -0.3333452 0.11651744 0.22170612
000250 1c 32 b7 be 20 4e 36 bd 0a 0a c2 3d c6 76 5d 3e
       -0.35780418 -0.0445081 0.09474571 0.2162734
000260 fa 8c 58 be ed 7f 32 be aa 31 83 bd 89 03 a3 be
       -0.21147528 -0.17431612 -0.06405957 -0.31838635
000270 ba b0 c4 be f4 0f 81 3e f6 b2 a2 be bf a1 58 be
       -0.38416082 0.25207484 -0.3177716 -0.21155451
000280 99 ee 68 3e bd 7b 27 3d a5 35 01 3e 3e 82 47 be
       0.22747268 0.04088949 0.1261812 -0.19483277
000290 5c 43 e9 bc f7 08 e6 3c ea 4f 40 be e2 c0 ff 3d
       -0.028474502 0.028080447 -0.18780485 0.12487961
0002a0 b4 42 b0 3e d2 3b 65 3e 36 f0 a5 bd 07 d7 fd bd
       0.3442589 0.22386101 -0.08102457 -0.12394529
0002b0 3d 03 a5 3e 25 8e 7b be 41 f6 12 3e ea e6 9c bd
       0.32229033 -0.24565943 0.14351751 -0.07661231
0002c0 a6 8a 56 3d 1b ab c8 bd a5 4d 6d be 4c 3e e9 bd
       0.05237832 -0.09798261 -0.2317415 -0.11388835
0002d0 d7 12 45 bd 84 4b a3 bd ac 97 ca bd b2 68 61 3e
       -0.04811367 -0.07973388 -0.0989221 0.22012594
0002e0 3e bc 91 3e d0 c4 2a bd 63 52 3e 3e 64 c3 c2 bd
       0.2846393 -0.0416916 0.18586116 -0.09509924
0002f0 ba 22 b1 be 0e 53 fb 3d cc f2 ec bc 1b e6 3b bd
       -0.34596807 0.12271701 -0.028924368 -0.045873743
000300 9c d2 ee bd 26 78 98 be 70 45 bd 3e 3d 55 14 bc
       -0.11661264 -0.29779166 0.3696704 -0.0090535255
000310 10 41 b9 bc 67 74 a6 3e 4a a5 b7 3d 62 7f 58 3d
       -0.022614032 0.32510683 0.08967073 0.052855857
000320 a8 89 38 3e f6 1b 68 bd ed 74 ea bc 51 86 4c be
       0.18021262 -0.05666729 -0.028620208 -0.19973113
000330 c1 9e 5f be 8f 42 ef be 88 66 9c 3d ee 96 58 be
       -0.21837904 -0.46730468 0.07636744 -0.21151325
000340 9e a0 43 3d 0a 37 64 3e df 78 22 3e 3a ed 16 be
       0.0477606 0.2228662 0.15866421 -0.14738932
000350 94 f8 8c be 4b 18 80 3e a6 ef 6a 3e d0 a9 5f be
       -0.275334 0.25018534 0.22942981 -0.21842122
000360 00 ea 88 be 86 d5 4b 3e c8 7e e2 bd 4e aa 1e be
       -0.26741028 0.19905671 -0.11059338 -0.15494654
000370 3a f8 35 3e 56 61 ac be d7 cd 70 3e c9 5c 3d be
       0.17770472 -0.3366801 0.23516022 -0.18492426
000380 16 e9 bc 3c 7a 08 2e 3e fd 11 a6 3d fd 67 e7 bd
       0.023060363 0.16995421 0.081089 -0.11299131
000390 86 80 b3 be 80 3b 4d be 4e 92 d2 3e 00 42 07 be
       -0.35058993 -0.20042229 0.41127247 -0.13208771
0003a0 93 89 47 3e d5 21 14 3f 95 1e 28 be 45 dc 5e 3e
       0.19486074 0.57864124 -0.16417916 0.21763714
0003b0 5b db b0 be 50 d2 21 3c 43 dc 70 be 2a b4 5f bd
       -0.34542355 0.009876803 -0.23521523 -0.054615177
0003c0 0d a0 02 3e 9f e1 b3 3c c0 ef d8 be 7c f7 1f be
       0.12756367 0.02195817 -0.42370415 -0.15621752
0003d0 19 25 24 3e e0 73 c8 bc 97 2d 62 3e 44 38 ae 3d
       0.16029777 -0.024469316 0.22087704 0.085068256
0003e0 d8 02 1a be 28 dd a7 3e 2e 1d db bb 4d 63 f7 bd
       -0.15040147 0.32785916 -0.006686828 -0.12079487
0003f0 85 9f 30 3e 83 e5 0f be 9b 50 b1 b9 b4 1a a6 be
       0.17248352 -0.14052396 -0.00033820127 -0.32442248

conv2.bias f4 [64]
000000 8a e2 5d 3d ea 84 aa 3e 70 5d 69 be cb 16 c9 3d
       0.054171123 0.3330453 -0.2278955 0.098188005
000010 f1 86 b0 bc 82 3d 3d 3e 79 ab 7a 3e 83 d1 8a 3d
       -0.02154872 0.18480495 0.24479474 0.067782424
000020 30 93 1d 3e f7 a9 0d be 7f b0 4a 3d bb 8d 5d 3e
       0.15388179 -0.13834368 0.049484726 0.21636097
000030 65 47 9b bd ab 27 d7 3d 52 f2 a9 be 35 37 35 3b
       -0.07581977 0.10505613 -0.33192688 0.0027651314
000040 d9 43 49 bd fb 49 80 3e bd ef 1d bd e3 60 36 bd
       -0.04913697 0.25056443 -0.03855871 -0.044525992
000050 21 01 f0 3d 8f f4 09 3c f5 44 5c 3e 7a fc 3a 3e
       0.11718965 0.008420124 0.2151068 0.18260375
000060 fc e0 41 bd 72 94 6f be 96 99 f4 bd 96 fb 82 3d
       -0.047333702 -0.23396471 -0.11943357 0.063956425
000070 05 d6 6d 3e b1 d0 98 bc d2 a5 93 3e 6c a4 fb 3d
       0.23226173 -0.0186542 0.28837448 0.1228722
000080 cb fc 98 bb 17 1f 9a 3e 63 0c 35 3d ad ec 8d be
       -0.004668807 0.30101845 0.044201266 -0.27719632
000090 51 27 5b 3d 27 68 ad be a0 f2 42 3d 83 c6 83 3e
       0.053504292 -0.33868524 0.047594666 0.2573739
0000a0 4a 55 85 3e 6b 93 b8 be 0f 32 28 3e 5e ae 9b bd
       0.26041633 -0.3604997 0.16425346 -0.07601617
0000b0 64 89 ac bd 7b b0 3d 3e 7b ec 93 be f6 dc 3c be
       -0.08424643 0.18524353 -0.28891358 -0.18443665
0000c0 37 f7 72 bc 72 f2 3d be d7 7d 20 be b8 70 48 be
       -0.014829448 -0.18549517 -0.15673004 -0.19574249
0000d0 3d f0 78 be d5 38 8c 3e 2c 51 bf 3d c2 a1 c6 bc
       -0.24310394 0.2738711 0.09341654 -0.024247054
0000e0 c7 17 0a be d6 1b d1 3d 3f 47 32 be 2e 65 02 be
       -0.13485633 0.102103874 -0.1740999 -0.1273391
0000f0 9f f2 c5 bc 9e c1 15 3e a0 59 41 3e 3f 2f 2f 3b
       -0.024163542 0.1462464 0.18881845 0.0026731042

bn2.weight f4 [64]
000000 ec 36 7d 3f 16 c1 82 3f c0 4f 6f 3f 12 de 7e 3f
       0.9891193 1.0215175 0.93481064 0.995576
000010 ba dd 64 3f cb 3a 88 3f 2d 22 7e 3f 50 2a 77 3f
       0.8940083 1.0642942 0.992709 0.9654894
000020 9c 30 65 3f a1 5b 55 3f d0 9b 75 3f 0f 43 83 3f
       0.895273 0.8334294 0.95940876 1.025484
000030 3d f5 74 3f 92 e7 5a 3f 9a f6 83 3f d4 1e 6f 3f
       0.95686704 0.855096 1.0309632 0.93406415
000040 a2 45 67 3f 9a de 64 3f bf c2 6a 3f 16 08 74 3f
       0.90340626 0.89402163 0.9170341 0.9532484
000050 25 0f 78 3f e8 76 6c 3f 92 a9 5b 3f d3 dd 7a 3f
       0.9689811 0.92368937 0.8580562 0.97994727
000060 e9 16 92 3f b6 7c 98 3f 34 4b 61 3f 1c 86 72 3f
       1.1413242 1.1913059 0.88005376 0.94735885
000070 96 96 7b 3f ea 27 5a 3f c8 a4 7e 3f 4b c9 6a 3f
       0.9827665 0.85217154 0.99470186 0.917134
000080 41 8d 6c 3f 13 c7 86 3f 5b f7 83 3f 64 7e 81 3f
       0.92403036 1.0529503 1.0309862 1.0116696
000090 b7 93 88 3f da f7 81 3f ef c0 71 3f 8b b4 68 3f
       1.0670079 1.0153763 0.9443502 0.90900487
0000a0 8d 79 6c 3f 03 c8 80 3f 70 53 6d 3f b4 49 83 3f
       0.9237297 1.0061039 0.9270544 1.0256867
0000b0 3c 32 75 3f 63 4e 8a 3f a3 43 63 3f 7b e6 8e 3f
       0.95779777 1.0805172 0.8877508 1.1164087
0000c0 87 48 5b 3f d8 1a 84 3f b0 88 91 3f 96 0d 8f 3f
       0.8565754 1.0320692 1.1369839 1.1176021
0000d0 91 07 86 3f 2e 03 58 3f 81 60 69 3f 04 68 63 3f
       1.0471059 0.8437985 0.9116288 0.8883059
0000e0 74 de 71 3f b5 45 70 3f f9 1d 92 3f 6d e0 5a 3f
       0.9448006 0.93856364 1.1415397 0.85498697
0000f0 ff d8 85 3f bd 79 86 3f 5c 2b 6f 3f fd b7 74 3f
       1.0456847 1.0505902 0.93425536 0.95593244

bn2.bias f4 [64]
000000 8d a6 3f bd 00 b4 29 bb 35 86 8e bd 92 ce 68 3c
       -0.046789695 -0.0025894642 -0.06959192 0.014209406
000010 5b a6 a1 bd 6e dd c1 bd 97 77 88 bd 5b 43 5c bd
       -0.07893058 -0.094660625 -0.06663435 -0.053775173
000020 a1 71 5d be 6f 63 ae bd b2 f9 7a 3d fc 0c 98 ba
       -0.21625377 -0.08515059 0.061273284 -0.0011600549
000030 a0 40 84 bc 07 db ad bd 36 98 b8 3d 3f f9 24 bd
       -0.016144097 -0.08489042 0.09013407 -0.040276762
000040 75 df 1c be d3 34 3c bb 38 d0 8e bd de 14 4b 3c
       -0.15319617 -0.002871801 -0.06973308 0.012395112
000050 cf aa 5c 3d 0e 7e 76 bd ee c4 d2 bd 92 c0 63 bd
       0.053873833 -0.06017881 -0.102914676 -0.05560357
000060 f6 b8 26 3e 3b e0 63 3e 4f 20 90 bd 0f b0 81 bd
       0.16281494 0.22253506 -0.070374124 -0.06332409
000070 44 4b 09 be 33 50 78 bc ac 85 f2 3c bc 31 e9 bd
       -0.13407618 -0.01515584 0.029604755 -0.11386439
000080 cb fe ae bd f1 42 fe bc cf 44 16 bd a3 7f 46 39
       -0.08544692 -0.03103778 -0.036686715 0.000189303
000090 d2 33 1f 3c cf 06 db bd 8f 1a d2 3b 2c d4 b6 3a
       0.009716945 -0.10694658 0.0064118574 0.001394873
0000a0 68 e7 01 bd 0e 5c 03 3d ef 4e 06 bd 53 ec 4b 3e
       -0.031714827 0.032070212 -0.03279012 0.1991437
0000b0 cd 29 00 be 24 ef 70 bc a7 c9 12 bd 26 5c 55 bd
       -0.12515946 -0.014705453 -0.035836842 -0.052089833
0000c0 8e 4a e3 bd c8 bb 8b bc 56 29 e7 bd f3 88 81 3e
       -0.110982046 -0.017057315 -0.11287181 0.25299796
0000d0 be 1b fd 3c 9c 5b 1b be 08 7b 3a bc 6f 14 65 bd
       0.030897018 -0.15171665 -0.011381872 -0.05592769
0000e0 02 b2 ee bc c2 7f 72 bc 06 48 46 bb 8b c4 3e be
       -0.029137615 -0.014800968 -0.0030255332 -0.18629663
0000f0 71 37 54 3e 01 57 b1 3d 47 1f 3c bd aa 37 8b 3c
       0.20724274 0.08659173 -0.045928266 0.016994316

bn2.running_mean f4 [64]
000000 50 b1 65 3d 7a 08 a0 3e 78 15 fe be 1b f1 2d 3e
       0.0560773 0.31256467 -0.49625754 0.16986506
000010 4a c7 95 bc 54 9a 88 bc 6f df 9f bd 7f 8b e4 3d
       -0.018283505 -0.016675152 -0.078062885 0.11159419
000020 23 09 7b 3e 69 51 28 3e 4f 1b fc 3e 12 33 b8 3e
       0.24515204 0.16437306 0.49239585 0.35976464
000030 12 2d 5e be cc 95 e5 3d cc 0a 9c be 61 9a 38 3c
       -0.2169688 0.11210212 -0.30476987 0.011267276
000040 54 26 67 be a0 73 88 3d 9e 29 1f 3d 5a 46 05 be
       -0.22573215 0.06662679 0.03885805 -0.13015118
000050 99 e6 1d 3d 5e 66 86 3d ce 86 93 bd c9 79 1f 3e
       0.038549993 0.06562494 -0.07203446 0.15573801
000060 f7 3c 39 be 32 98 84 bd 4c b6 e0 be 68 fe 5a 3e
       -0.18089662 -0.064743415 -0.4388908 0.21386111
000070 01 d6 4b 3e 3b ba 42 bd 29 06 39 3f da 53 86 bd
       0.19905855 -0.047540884 0.72275025 -0.06558962
000080 2a 21 90 be 4e dd bd 3d 55 7d 51 3d 3f a2 e4 bc
       -0.28150302 0.09270726 0.051144917 -0.027909396
000090 b2 ce ae 3d ac 6c 9d be 5b 37 23 bd 48 6f 76 3d
       0.08535518 -0.30746973 -0.039847713 0.06016472
0000a0 04 71 de 3d f3 11 00 bf b0 a5 f0 3d 5b be a1 bd
       0.108614 -0.5002739 0.117503524 -0.078976355
0000b0 77 6c af 3d 2b 74 6a 3e 40 53 3f bd 4a 6b 27 be
       0.0856561 0.22895877 -0.046710253 -0.16349521
0000c0 02 71 e5 be 07 74 33 be 13 9a 17 be f8 70 e7 bd
       -0.4481278 -0.1752473 -0.14804868 -0.11300844
0000d0 f5 8c 5a be 4b 44 27 3e d2 b3 88 3c 8a cc 8b be
       -0.21342833 0.16334645 0.016687308 -0.27304488
0000e0 c1 c5 83 3d d4 e4 86 bd f0 28 38 be f1 f1 1e be
       0.06434203 -0.06586614 -0.17984366 -0.15521981
0000f0 35 1d a1 bd cf 04 aa 3d 8c b6 dc bd 26 1e 47 be
       -0.07866899 0.083016984 -0.107770056 -0.19445094

bn2.running_var f4 [64]
000000 7c d8 fa 3c 71 fa 98 3c 88 3d 17 3e 08 21 cc 3d
       0.030620806 0.018674107 0.14769566 0.09967238
000010 e2 6a d5 3d c3 00 05 3d 41 a6 2e 3d 06 24 e9 3d
       0.10420777 0.03247143 0.04263902 0.11383824
000020 7b e0 dc 3b 6c 7e 87 3e 26 38 80 3e 70 40 95 3c
       0.0067406273 0.2646364 0.25042838 0.018219203
000030 15 78 1b 3e 68 59 32 3d 7d b3 cb 3b 0e e6 92 3d
       0.15182526 0.043542296 0.006216465 0.07172786
000040 58 c3 c7 3c 18 bd dc 3e 37 09 3a 3c b6 d7 25 3d
       0.02438514 0.43113017 0.011354736 0.04048892
000050 da bc 11 3e a3 a7 a5 3c e9 02 f8 3e 6b ba 32 3d
       0.14232197 0.020221537 0.4843972 0.043634813
000060 99 6a 0b 3d 44 8a ca 3d 43 9e a0 3e 4d b1 8d 3d
       0.034037206 0.09889653 0.31370744 0.06918583
000070 8a 23 66 3b 74 ec be 3c f1 f5 70 3e d8 00 ed 3c
       0.0035116398 0.023306109 0.23531319 0.028931066
000080 15 6a 0c 3f 2f 8e 3b 3d e2 49 c0 3b 3d 6c aa 3e
       0.5484937 0.045789894 0.0058681825 0.33285704
000090 f7 33 31 3d 19 db c0 3c c0 4f 6a 3e e8 96 f4 3e
       0.04326245 0.023541974 0.22881985 0.47771382
0000a0 d7 30 86 3e a8 c2 02 3d 34 c9 1b 3d e4 2b 61 3a
       0.26209137 0.03192392 0.03803368 0.0008589609
0000b0 f7 58 b6 3c a3 91 18 3c df 5a ba 3e 43 0c 71 3b
       0.022259219 0.009312066 0.36397454 0.003678099
0000c0 78 13 22 3f 5c 08 05 3b 5b 59 14 3d 98 0c 9e 3c
       0.63310957 0.0020299172 0.03621803 0.019293115
0000d0 c9 b3 f0 3d 45 e7 ad 3d c5 d5 d4 3b 8c ab e4 3e
       0.11753041 0.08491377 0.00649521 0.4466213
0000e0 11 46 7f 3d 9d 65 9e 3d c5 f2 b1 3a 25 ee 8e 3c
       0.06232268 0.07734225 0.0013576379 0.01744754
0000f0 9b 5e 40 3c 51 9a be 3c 2a d4 2a 3e eb 62 42 3e
       0.011741306 0.023266943 0.16682497 0.18983047

conv3.weight f4 [64, 64, 1, 1]
000000 ab be 2e bd 4c 03 1c 3e 6a 1b 30 be 43 2d 89 3d
       -0.042662304 0.15235633 -0.17197958 0.06698086
000010 da 89 75 bd ad a5 82 3d cc c8 94 3c 3d d2 32 be
       -0.05994592 0.063792564 0.018162154 -0.17463012
000020 50 55 ac 3d 73 2b eb bd cc 37 72 bd 77 12 d5 bb
       0.084147096 -0.11482897 -0.059135243 -0.0065024453
000030 a4 7d 05 3d e8 df 4b bd 76 ba d8 3d 2e 5e 3f 3d
       0.032590523 -0.04977408 0.105824396 0.046720676
000040 22 bb ad bd 7e d0 e0 3d 63 11 15 3e a8 80 1b 3e
       -0.084829584 0.10977267 0.14557414 0.15185797
000050 49 d3 f3 bd aa 0b ed bd 97 68 38 be 33 f1 ec 3d
       -0.11905534 -0.1157449 -0.18008648 0.115694426
000060 6a ba 01 bd 32 a7 f9 3d 7a aa 23 bd 8b ef e7 bc
       -0.03167192 0.12190093 -0.0399575 -0.028312465
000070 cd 4c a1 bd 06 9d 3a 3d 16 79 80 be 2d 71 c4 bc
       -0.07875977 0.045559905 -0.2509238 -0.023979748
000080 da af 20 3e 72 31 09 bc 9c a9 e7 bd c6 31 42 3e
       0.15692082 -0.008373605 -0.11311647 0.189643
000090 7a b7 e4 3d 20 a5 61 be e3 88 6c 3e a6 24 e4 3d
       0.11167808 -0.22035646 0.23099093 0.11139803
0000a0 5e 22 02 3e f0 7b 83 bc 84 e2 51 bd c4 2d b9 bd
       0.12708423 -0.016050309 -0.051241413 -0.09041932
0000b0 07 4f e3 bc dd 04 11 be 9f 4a 72 3a ad 46 77 3d
       -0.027747644 -0.14162011 0.0009242687 0.060370136
0000c0 ac a7 69 bc d5 65 12 be fe 68 1f bb 57 0e 9c 3d
       -0.0142611675 -0.14296658 -0.0024324055 0.076199226
0000d0 43 72 0e 3e 6b 61 86 bd 91 48 11 3e c9 c9 a3 3d
       0.13910775 -0.0656155 0.14187838 0.07997472
0000e0 29 b6 09 bd f8 96 1b 3d e8 64 32 bc 8f 20 a0 3d
       -0.033620987 0.037985772 -0.010888316 0.0781871
0000f0 8b f4 12 be 29 5d b7 3d 6c d8 0e be 01 8f d6 3d
       -0.14351098 0.08953316 -0.13949746 0.104764946
000100 1c cd ec 3d 7e b8 0a be 2c 68 1c bd 4f e7 33 3d
       0.11562559 -0.1354694 -0.038185284 0.043921765
000110 bb 54 c4 bd 0b 11 35 3d 15 f9 23 3d 19 e9 db bd
       -0.095864736 0.044205707 0.040032465 -0.10737819
000120 1b c1 76 3d 64 b1 b6 3d 39 b1 12 3e 74 da e6 3d
       0.060242753 0.08920553 0.14325418 0.112721354
000130 75 d2 4a 3d 63 53 84 bd 9d 50 07 3e 6f f9 5e 3d
       0.049517114 -0.06461217 0.13214345 0.054437097
000140 6c 8e d3 bd 1e f5 5a 3c da 42 1f 3c 29 a2 87 bd
       -0.10329899 0.013364105 0.0097205285 -0.066227265
000150 5b c7 fe bd 62 33 2a 3e 0a 2b b1 bd c7 86 57 bd
       -0.12440368 0.16621163 -0.08650787 -0.052618768
000160 a2 d7 b4 3d fa b8 79 3e f7 ae 56 bd e5 46 a2 bd
       0.08830191 0.24386969 -0.052412953 -0.07923678
000170 0c ef c4 bc be 09 30 bd a3 22 8b bd 2e d3 cb bd
       -0.024039768 -0.04297804 -0.06793716 -0.09952389
000180 22 62 c9 bd 49 13 27 3e c0 51 17 be 55 0b e2 bc
       -0.098331705 0.1631595 -0.14777279 -0.027593294
000190 e9 17 3b 3e ac 48 9a 3c 6c 82 a5 bc ea 37 74 bc
       0.1827084 0.01883348 -0.020203792 -0.014905909
0001a0 0b bb 91 bd b0 c0 59 bd 09 9d 6c 3d 76 ce de 3c
       -0.07115754 -0.053162277 0.057766948 0.027198058
0001b0 62 c1 3c 3e 3f 7a 27 be 7f 96 a0 3d 92 88 0a bd
       0.18433145 -0.16355227 0.07841205 -0.03382165
0001c0 c2 87 2d be 88 f2 8e bd 34 c2 24 bd 13 4d 63 3e
       -0.16946319 -0.06979853 -0.04022427 0.2219737
0001d0 fa e5 8b 3d ca c6 f0 bd cb 18 b7 3d 0d a6 ef bd
       0.06830974 -0.11756666 0.08940276 -0.117015935
0001e0 64 3c 63 3d 51 7d 20 3e ac 47 92 3d 75 c3 2e bd
       0.055477515 0.15672804 0.071425766 -0.04266687
0001f0 bf b8 6f 3d a0 e8 c2 3c 9a 57 a5 bd 6c ac 1d 3d
       0.058525797 0.023792565 -0.08073349 0.038494512
000200 8d fe c9 bd 12 48 ce 3d 81 ab a5 bd c0 08 9e bb
       -0.09863005 0.1007234 -0.080893524 -0.0048228204
000210 bb c3 2f 3c 64 0b dd 3d 74 1b 17 3e 91 0c f7 3d
       0.010727818 0.10793188 0.14756566 0.12062944
000220 41 4e 2d 3d 00 c7 b5 3d 0a a4 6a bd da 5f 52 bd
       0.042310957 0.08875847 -0.057285346 -0.051360942
000230 80 04 c7 bd 04 83 3a 3d be ae 82 bd 1a 61 ca bc
       -0.09717655 0.045535102 -0.06380986 -0.024704505
000240 e8 a8 ec 3d e7 10 1e bc ae 5f 1b 3e 21 e5 21 3d
       0.11555654 -0.0096475845 0.15173218 0.039525155
000250 db d9 ad bc e5 31 8d 3d 23 5e 92 ba c7 21 0b 3d
       -0.021222046 0.06894282 -0.0011166971 0.03396776
000260 55 2b 22 be f5 74 79 bc 43 8c ec bc 33 98 27 3e
       -0.15836842 -0.015225639 -0.028875476 0.16366653
000270 63 82 43 bc 3d a4 33 3d f4 59 a8 3d 27 5b 07 bd
       -0.011932942 0.0438578 0.08220282 -0.033045914
000280 f7 71 f7 3d 04 2c 00 be 59 ec 5e 3d 0e a4 0a be
       0.12082284 -0.1251679 0.054424617 -0.13539144
000290 c5 17 57 3d e4 8c 83 be 25 4b 9f 3d 0d 31 3d bc
       0.052512903 -0.2569343 0.077780046 -0.011547339
0002a0 f9 c0 fc 3d dd 87 95 3d fd 06 89 bd 6f 3f ec 3d
       0.12341494 0.073013045 -0.06690786 0.115355365
0002b0 c5 06 a2 bd aa 69 03 be dc a9 90 3d 47 91 02 be
       -0.079114474 -0.12833276 0.07063648 -0.12750731
0002c0 c3 e5 cb 3c 4d ef 59 bd 96 90 2b 3e d0 84 11 be
       0.024889832 -0.05320673 0.16754374 -0.1421082
0002d0 28 dc fb bd 86 f7 fa 3d 7d 4b b4 bc b6 51 ea bd
       -0.12297851 0.122542426 -0.022008652 -0.114413664
0002e0 92 89 f1 bd 03 ef f5 3c 01 1a cd bd 83 8d 30 3d
       -0.117938176 0.030021196 -0.100147255 0.043103706
0002f0 7f 22 2c bd 40 b5 d1 3c f9 b9 bb 3d b0 b8 3e bc
       -0.042025086 0.025599122 0.09166331 -0.011640713
000300 c6 af 5b bc 94 d5 17 be c9 85 35 be 47 55 e1 3d
       -0.013408607 -0.14827567 -0.17726816 0.110025935
000310 20 22 ca 3d b8 71 0c 3d 57 67 2c be 47 40 a3 bd
       0.0986979 0.03428814 -0.16836296 -0.07971244
000320 df f7 08 bd 98 b9 ec bd b1 cc f5 3c 78 a3 bc 3d
       -0.033439513 -0.11558837 0.030004831 0.09210867
000330 1e df 02 be 2f 5e 00 be 58 27 d6 bd 32 7f 36 be
       -0.12780425 -0.12535928 -0.10456723 -0.17821959
000340 b5 30 1d bd cf 3a 89 3c 46 b8 2d 3e 12 51 7b 3d
       -0.03837653 0.016751675 0.16964826 0.06135661
000350 49 e7 61 3d 2c de 1b 3e ad 06 83 3d 11 bf 7b bd
       0.05515221 0.1522147 0.06397758 -0.061461512
000360 a7 54 03 be b1 54 71 be 59 b9 f3 bb fb 2a e0 bd
       -0.12825261 -0.23567463 -0.0074378666 -0.10945698
000370 f2 a5 ff 3d c1 84 47 be bf 63 70 be a3 68 fe bd
       0.124828234 -0.19484235 -0.2347555 -0.124223016
000380 ac 3a 2b 3d 5d 99 06 be 8f 7b 4b bd a4 a9 ea 3d
       0.041804 -0.13144441 -0.04967838 0.11458138
000390 cb c5 01 3e 53 52 b1 bb a9 8d d0 3d 87 b0 38 be
       0.12673108 -0.005411425 0.101832695 -0.1803609
0003a0 29 e9 26 3e 14 b7 c3 bd 8e f7 8b bc 01 27 c9 3d
       0.16299881 -0.09556404 -0.017085817 0.098218925
0003b0 a9 6a 9a 3d f8 f2 1d 3c fe 80 f4 bd 83 5f a6 bd
       0.07539875 0.009640448 -0.11938666 -0.08123686
0003c0 9a 2a f5 bc 88 fe 9d 3c 7a 45 da 3d 31 fe 81 3d
       -0.02992754 0.019286409 0.10657783 0.06347311
0003d0 ab c8 33 bd 9d 80 78 bc 9b c8 4d bc ee 3d d8 3d
       -0.043892544 -0.015167383 -0.012560035 0.10558687
0003e0 d7 46 bc 3c aa 00 5c bd 8e 65 23 be 53 4d 3a 3d
       0.022982998 -0.05371157 -0.15956709 0.0454839
0003f0 50 ed 83 bd 7d 5c 71 3d 0c a4 d5 bb 32 b3 89 be
       -0.06441748 0.058926094 -0.0065198 -0.26894528

conv3.bias f4 [64]
000000 b5 b9 86 bc d3 b6 59 3b ce fa 80 3c 6e 52 85 bd
       -0.016445974 0.0033220544 0.015744593 -0.06509863
000010 3e 83 ae 3d 9f 4a 14 bd 80 0b de 3d ec e2 9e 3d
       0.08521126 -0.036203977 0.10842037 0.07758126
000020 8a bd d4 bd cc f4 2d bd 92 cd 25 be 6c a5 d9 bc
       -0.10387714 -0.042469785 -0.161917 -0.026568137
000030 3f 56 0f bc 69 0c bb bc 28 d9 a0 bd 98 4d 95 bd
       -0.00874859 -0.022833066 -0.07853919 -0.072901905
000040 5f 0e ce 3d 94 6b b8 3b df 05 06 be 8d 7e a1 bd
       0.10061335 0.0056280587 -0.13088177 -0.07885466
000050 d1 e2 e6 bd 48 09 92 3d a9 0a 2b 3e 05 a3 03 bd
       -0.112737305 0.071306765 0.16703285 -0.03213789
000060 44 16 0c be b4 32 b6 bd bb 12 d0 3d fd 27 f2 3d
       -0.13680369 -0.088963896 0.101598226 0.118240334
000070 81 a4 9a 3b 65 18 c7 bd 0c 7d 04 be ef 32 1c bd
       0.0047193174 -0.0972145 -0.12938327 -0.03813451
000080 9c e3 9d bc 02 34 6e 3d c4 09 89 bd 3c 06 a9 bd
       -0.019273572 0.058155067 -0.06691316 -0.08253142
000090 13 ea f2 bc bf 58 e5 bd 69 3d ec 3d ae 30 9c 3d
       -0.02965263 -0.111985676 0.115351506 0.076264724
0000a0 8c 40 e5 3c 32 50 55 bc 17 2f 2d 3d 01 51 dc 3c
       0.02798488 -0.013019608 0.042281236 0.026894094
0000b0 78 f3 a9 bd 9f 48 8a 3d d6 03 47 bd 95 2d e2 3d
       -0.08298391 0.067521326 -0.048587643 0.1104385
0000c0 fa 5e e6 3c 6b 83 ad 3c 24 bc 92 bd ef f1 4e bd
       0.02812146 0.021180829 -0.07164791 -0.050523695
0000d0 5c 07 91 bd 36 77 6c 3d 92 3d 01 be 17 b6 94 3d
       -0.07081482 0.057730876 -0.12621143 0.072612934
0000e0 fb 4f 64 3d 35 77 4f 3c 66 8a 68 bd 4c 01 cd bd
       0.055740338 0.0126626985 -0.056772612 -0.10010013
0000f0 f3 ec ff 3d 29 91 01 3e 30 a1 89 bd b4 68 ec bd
       0.12496366 0.1265303 -0.06720197 -0.11543408

bn3.weight f4 [64]
000000 95 73 87 3f 10 63 85 3f e0 c9 a1 3f 81 e9 8e 3f
       1.0582148 1.0420856 1.2639732 1.116501
000010 e3 e2 8c 3f c3 7e 89 3f 95 2e 7a 3f 51 30 7c 3f
       1.100674 1.074181 0.9772733 0.98511225
000020 a1 c0 83 3f 9b e3 87 3f 9e b0 83 3f 94 70 90 3f
       1.0293161 1.0616335 1.0288274 1.1284356
000030 fa 07 8b 3f 1c 66 79 3f ab bc 87 3f 24 dd 69 3f
       1.0861809 0.9742143 1.0604452 0.9135306
000040 0c 68 96 3f c5 c2 3d 3f 86 b6 9d 3f b7 e2 a6 3f
       1.1750503 0.7412532 1.2321327 1.3037938
000050 1c a7 48 3f 75 60 7d 3f d5 ca 9b 3f 55 78 80 3f
       0.7837999 0.98975307 1.2171274 1.0036722
000060 5e 38 92 3f 3e ea 8a 3f f7 49 74 3f 7a 50 8b 3f
       1.1423452 1.0852735 0.9542536 1.0883934
000070 ea 71 98 3f fa f0 84 3f c1 81 9e 3f 5a 49 7d 3f
       1.1909764 1.038604 1.2383348 0.9894005
000080 c1 7a 9d 3f 92 09 76 3f 36 0e 8d 3f 9b a2 82 3f
       1.2303087 0.96108353 1.1019962 1.0205873
000090 44 82 64 3f 21 fc 64 3f d9 67 59 3f dd cc 63 3f
       0.8926127 0.8944722 0.84924084 0.8898447
0000a0 4c 5d 84 3f a6 0b 71 3f 45 8c 85 3f 86 d1 8a 3f
       1.0340972 0.941584 1.0433432 1.0845191
0000b0 14 9f 51 3f 5f bf 91 3f c0 8c 8c 3f 1c c4 5e 3f
       0.8188336 1.1386527 1.0980453 0.8701799
0000c0 d1 3c 73 3f df 57 5f 3f d2 96 59 3f e5 22 7b 3f
       0.95014673 0.87243456 0.8499576 0.9810012
0000d0 96 19 4f 3f 0a 15 44 3f 1d 7e 9d 3f 15 52 88 3f
       0.80898416 0.76594603 1.2304112 1.065005
0000e0 ed 25 99 3f 8f 12 70 3f fe 47 a0 3f 8a da 72 3f
       1.1964699 0.9377832 1.252197 0.94864714
0000f0 fb b7 8f 3f 34 1b 86 3f 5d 50 75 3f 11 5c 87 3f
       1.1228021 1.0477052 0.9582575 1.0574971

bn3.bias f4 [64]
000000 5c 94 30 bd 39 02 23 bd 11 a2 81 3b ee 77 43 3c
       -0.043110237 -0.03979704 0.0039560874 0.011930449
000010 39 e7 41 3d 4e 95 7a 3d e0 55 f8 bd 8e ad c1 3d
       0.04733965 0.061177544 -0.12125754 0.09456931
000020 79 89 2d 3d cc 5f 39 bd 49 6c 32 bd d8 0f 34 bd
       0.042367432 -0.045257375 -0.0435603 -0.043960422
000030 57 7a dd 3c 4c d8 a0 bd ca d7 bb ba b7 eb f5 3d
       0.027035875 -0.07853755 -0.0014331278 0.1200785
000040 02 4e 2a bd 3c 5d 6e be 41 3b b3 bb 86 d8 36 3c
       -0.0415783 -0.23277754 -0.00546971 0.011160022
000050 8b 8d 4f be a5 24 04 3d b5 9b 01 bb a6 23 b4 3c
       -0.20268838 0.03226151 -0.0019776647 0.021989655
000060 e7 4f ac bc 96 3c f2 3c bf 24 d6 bd b6 42 86 bc
       -0.021034194 0.029569905 -0.104562275 -0.016389232
000070 35 30 c8 3c 46 f6 38 bd 9d ea 03 bc 41 b8 8a 3d
       0.02443705 -0.04515674 -0.008051542 0.06773425
000080 d2 db d4 3b 60 3c 85 bd a5 9e e2 3c 4d 07 5f bd
       0.006495931 -0.06505656 0.027663538 -0.054450322
000090 1d 35 0e be 03 d0 eb 3d ce ca 23 be 7d 09 2a 3e
       -0.13887449 0.115142845 -0.15995333 0.16605182
0000a0 48 d1 11 bd 9d 8b c4 bd 6c 17 fc bc 47 c2 ae 3c
       -0.035599977 -0.095969416 -0.030772887 0.021332873
0000b0 14 9e 47 be 04 55 8a 3d 1e 4d bb bb 0d 14 1b be
       -0.19493896 0.06754497 -0.00571598 -0.15144368
0000c0 ac 5b cb 3d 6e 4d 16 3e b1 5c 3d 3e 58 87 d1 bd
       0.099295944 0.14677975 0.1849239 -0.10230893
0000d0 15 1a 3e be fc 08 66 be fe d6 c9 ba 50 40 70 3d
       -0.18564637 -0.22464365 -0.0015399156 0.058655083
0000e0 c1 43 59 3c 66 8d bc 3d cd 65 2f bd 86 77 d2 bd
       0.013260783 0.09206657 -0.042821694 -0.102767035
0000f0 cb 5a 52 3d 98 2f 9a 3c 68 03 99 bd 75 01 17 bb
       0.05135612 0.018821523 -0.07471353 -0.002304164

bn3.running_mean f4 [64]
000000 33 88 03 3c 79 f1 d9 3e 2b e3 d5 bd d6 29 38 bf
       0.008028078 0.42567042 -0.104437195 -0.71938837
000010 33 33 96 3e c9 73 10 bf 12 a9 cc 3d e5 14 9b 3c
       0.29335937 -0.56426674 0.09993185 0.018930862
000020 7e 2b 43 bf 9c d0 f5 be bf 32 ab 3e 74 d0 12 bc
       -0.7623824 -0.4801072 0.33437154 -0.008960832
000030 3a bf 9f be c7 1d 04 bf 40 4c 05 3e 4b 45 e8 3e
       -0.31200582 -0.51607937 0.13017368 0.45365366
000040 fc 5b 3e be fe 4c af 3d 25 58 b4 3e 3b c1 f6 be
       -0.18589777 0.08559607 0.352235 -0.48194298
000050 39 b9 81 be ec bc 14 3e fd 2c da 3e 28 02 45 3e
       -0.25336626 0.14525193 0.42612448 0.19239104
000060 38 00 aa be f7 31 cc 3d 34 12 2f 3e de c5 9b be
       -0.33203292 0.099704675 0.17096788 -0.30424398
000070 83 18 8e bc 26 c5 a1 bd ab d3 b4 be 00 ee 5d bf
       -0.017345672 -0.07898931 -0.3531774 -0.86691284
000080 86 23 25 be 3b 2a 06 bf 1d 89 8c 3c 26 de e1 3e
       -0.16126832 -0.5240819 0.017155224 0.44114798
000090 06 7d b3 be 1d d7 dd bd fc 12 52 3f 3d 19 11 bf
       -0.35056323 -0.10832045 0.8206022 -0.56679136
0000a0 d2 f6 e5 be 0f 88 85 be 11 a8 8b 3e 6e 87 ab 3e
       -0.4491487 -0.26080367 0.27276662 0.33501762
0000b0 2d a0 f0 be ad 26 be be ae 03 d1 be 9f 5a b9 bc
       -0.46997204 -0.37138882 -0.4082312 -0.02262622
0000c0 71 89 04 3c 2b f1 11 bf b7 08 3b 3e ca d5 cf 3e
       0.008089409 -0.5700862 0.18265043 0.40592796
0000d0 63 a2 e0 be 10 f0 c9 3d 56 0d 14 3c 44 b9 d5 be
       -0.4387389 0.098602414 0.009036383 -0.4174291
0000e0 86 75 10 3e 97 81 f7 bc 09 eb a6 be 9b 8d 21 3c
       0.14107332 -0.03021316 -0.32601193 0.0098604215
0000f0 17 9d 18 3f 8b fd 6d 3e 87 86 ae bd d3 69 4b 3c
       0.596147 0.2324125 -0.08521753 0.012415367

bn3.running_var f4 [64]
000000 4f 5d 9c 3e 32 c5 c4 3e 5d 52 bf 3e 20 f9 37 3e
       0.3053994 0.38431698 0.37367526 0.17966127
000010 24 a0 d5 3e b7 8a 89 3e 21 b6 28 3e af ec 93 3e
       0.4172374 0.26863644 0.16475727 0.28891513
000020 62 4b 97 3e 90 f8 08 3e 79 12 1a 3e 3b 9b a3 3e
       0.295497 0.13376069 0.1504611 0.3195437
000030 3f 4a 8b 3e 5d 1c a4 3e 1f 6f 85 3e 7c c9 11 3f
       0.27205083 0.3205289 0.2606134 0.56948066
000040 86 d7 ab 3e 31 13 5d 3e 3d 14 85 3e 2c 0d c9 3e
       0.3356287 0.21589352 0.25992003 0.39267862
000050 4c f4 a9 3e 0f 6e b6 3e b1 5e d0 3e a2 4d 69 3e
       0.33194196 0.35630843 0.40697244 0.22783521
000060 e3 80 4d 3e 57 96 5b 3e a1 b4 ab 3e bb 3a 3e 3e
       0.20068698 0.21444069 0.33536246 0.18577091
000070 36 6f 81 3e 9f 0d c2 3e 6d cf 77 3e da ea b0 3e
       0.2528016 0.37901017 0.2420022 0.34554178
000080 ea f0 a5 3e e2 0e 8c 3e 2a 8f 81 3e 5f 3d 83 3e
       0.32410365 0.27355105 0.25304538 0.2563276
000090 3f 81 5a 3e ed 41 ad 3e 11 fa c7 3e 22 3c 18 3f
       0.21338366 0.3383936 0.39057973 0.59466755
0000a0 5f dd ba 3e 82 ed 80 3e 36 9e 4d 3e 36 55 81 3e
       0.36497018 0.25181204 0.20079884 0.25260323
0000b0 aa 23 49 3e 94 43 02 3e 59 59 28 3e d3 fe 56 3e
       0.19642511 0.12721092 0.16440333 0.20995645
0000c0 47 73 b9 3e 68 2d c6 3e 21 8d b2 3e cc 82 47 3e
       0.36220762 0.38706517 0.34873298 0.19483489
0000d0 6f e5 04 3f 92 81 09 3e 16 cd 6f 3e 44 bb aa 3e
       0.5191259 0.13428333 0.23418078 0.33345997
0000e0 ab d1 64 3e 58 c6 bd 3e 14 83 94 3e e8 df 2e 3e
       0.22345607 0.37065387 0.29006255 0.17077601
0000f0 f2 4b 36 3e 3d 2a 30 3e 67 06 90 3e 20 61 18 3e
       0.17802408 0.17203613 0.28129885 0.148808
